final-lab/best_model.pth (torch, 282338 bytes, 10 tensors)

conv1.weight f4 [6, 3, 5, 5]
0.019335832 -0.050594162 -0.20279317 -0.3653178 -0.086880945 -0.08681847 -0.29081234 -0.4795175
-0.5098074 -0.12264244 -0.24915533 -0.35702258 -0.34269595 -0.32110125 -0.08639156 -0.2444547
-0.18479954 -0.2705861 -0.31981832 -0.040576816 -0.12741487 -0.18893242 -0.17895158 -0.16296767
-0.23763055 0.2681183 0.4981876 0.67717975 0.45634204 0.32380214 0.18884638 0.51247996
0.65481824 0.549333 0.44850153 0.19557345 0.43430912 0.797833 0.7101754 0.45884243
0.012740452 0.42268968 0.6198259 0.4998845 0.32692957 -0.022115383 0.21011525 0.12070418
0.0461427 -0.3370976 -0.25673294 -0.093950115 -0.0058090123 -0.030797334 -0.06692443 -0.41399366
-0.07721891 -0.016288582 -0.09854156 -0.019800572 -0.32917246 -0.03186725 0.030713864 -0.11722175
-0.07345274 -0.371847 -0.08853863 0.116792314 -0.026290065 -0.08213926 -0.3197911 -0.091082156
-0.06932014 -0.32280958 -0.43142888 -0.21907642 -0.6658517 -0.7335985 -0.63669837 -0.4345328
-0.14385082 -0.3558541 -0.5820113 -0.50297487 -0.3466819 0.15578389 -0.015039042 -0.20699842
-0.21006101 -0.23617812 0.3518303 0.096309744 0.015313203 -0.18085244 -0.25297964 0.4771419
0.25612357 0.030405765 -0.03461377 -0.23249464 0.09105548 -0.1903642 -0.18137798 0.12122069
0.12733038 0.10859437 -0.15193664 -0.10810614 0.1702832 0.14035308 0.1913767 0.12378914
0.056331906 0.28934026 0.23187996 0.3866567 0.38121307 0.3291013 0.13491373 0.10575651
0.31343338 0.25717604 0.0755687 0.057555318 -0.10567242 -0.22457172 -0.5051703 -0.40844962
-0.12934473 -0.25756282 -0.109775215 -0.17525287 -0.111712195 0.02634758 0.059955698 0.12810585
0.009059373 0.19845897 0.123008944 -0.035534646 0.42538768 0.32538006 0.35887873 0.090153664
0.06526014 0.53424263 0.17809156 0.23233603 0.09473154 -0.21019255 0.13424866 0.0929833
0.16537225 0.23880248 -0.04981959 -0.0635946 -0.076504335 0.10475339 0.019637994 -0.11306866
0.044936527 -0.026905715 -0.05437621 -0.1106209 -0.31627268 -0.04407419 0.17156073 0.033918034
-0.13494927 -0.3158798 0.21308959 0.23658328 -0.048939735 -0.1786502 -0.5035534 0.23753832
0.19107231 0.19998014 0.07561154 -0.0018319803 0.09462406 0.26288697 0.18989533 0.07714368
0.12459716 0.15057969 0.19766012 0.21303894 0.20555036 0.12388963 0.44249994 0.528669
0.52895653 0.5014996 0.19772516 0.8085767 0.8057605 0.7136636 0.63435453 0.31934097
-0.35585913 -0.4934269 -0.42096978 -0.38880393 -0.5409431 -0.3770404 -0.4157048 -0.50062567
-0.45410028 -0.3711418 -0.45187882 -0.3898219 -0.35530427 -0.2501421 -0.28084493 -0.072018005
-0.122579694 0.0009589511 -0.035924144 -0.25928763 0.26254767 0.15333723 0.17207858 0.1594037
-0.14454117 0.24026613 -0.006446368 -0.3254819 -0.2866812 -0.41281903 0.088224486 0.009994434
-0.20693511 -0.44554615 -0.26383808 0.055245273 0.10366063 0.0016835594 -0.29600698 -0.1030915
0.037316237 0.10338174 -0.042230353 -0.24149859 -0.0039531817 -0.01650383 -0.20076516 -0.20203273
-0.06726817 -0.0012637542 0.25006944 0.08546809 -0.25713736 -0.44683245 -0.589005 0.14125735
00000000: 2e66 9e3c d33b 4fbd 03a9 4fbe ef0a bbbe
00000010: a3ee b1bd e2cd b1bd 5be5 94be 5183 f5be
00000020: bd82 02bf f62b fbbd 9322 7fbe aacb b6be
00000030: d875 afbe 6267 a4be 0fee b0bd 5552 7abe
00000040: 173c 3dbe 438a 8abe 3abf a3be e033 26bd
00000050: 0b79 02be 8077 41be 153f 37be ffe0 26be
00000060: 6c55 73be cd46 893e 7212 ff3e a75b 2d3f
00000070: aaa5 e93e 65c9 a53e f260 413e e331 033f
00000080: 2ba2 273f 16a1 0c3f fea1 e53e 6844 483e
00000090: c45d de3e c93e 4c3f 0ece 353f 65ed ea3e
000000a0: 54bd 503c c86a d83e e9ac 1e3f dcf0 ff3e
000000b0: 5063 a73e 522b b5bc 7428 573e c133 f73d
000000c0: 2100 3d3d 0e98 acbe 8072 83be eb68 c0bd
000000d0: 8759 bebb b14a fcbc ad0f 89bd faf6 d3be
000000e0: f324 9ebd a26f 85bc 28d0 c9bd cf34 a2bc
000000f0: 4b89 a8be 3c87 02bd a49b fb3c f511 f0bd
00000100: 646e 96bd bb62 bebe be53 b5bd cf30 ef3d
00000110: 435e d7bc a138 a8bd a9bb a3be 4889 babd
00000120: b8f7 8dbd 4c47 a5be 3fe4 dcbe 9255 60be
00000130: 4275 2abf 1ccd 3bbf aafe 22bf 157b debe
00000140: a14d 13be 8232 b6be b1fe 14bf f6c2 00bf
00000150: 4a80 b1be d085 1f3e 5066 76bc 65f7 53be
00000160: 3c1a 57be add8 71be 1a23 b43e 0b3e c53d
00000170: 3be4 7a3c 6231 39be 8c86 81be f14b f43e
00000180: a122 833e 8315 f93c 2bc7 0dbd 1313 6ebe
00000190: 4c7b ba3d d5ee 42be 26bb 39be 8e42 f83d
000001a0: e562 023e ba66 de3d 4795 1bbe c066 ddbd
000001b0: b85e 2e3e b8b8 0f3e 41f8 433e 2985 fd3d
000001c0: 49bc 663d 6824 943e f171 6d3e def7 c53e
000001d0: 5c2e c33e f77f a83e d326 0a3e de96 d83d
000001e0: 577a a03e 94ac 833e c3c3 9a3d 20bf 6b3d
000001f0: c86a d8bd 21f6 65be d752 01bf 4f20 d1be
00000200: f272 04be 46df 83be d4d1 e0bd 7d75 33be
00000210: 5dc9 e4bd e1d6 d73c 1b94 753d 2e2e 033e
00000220: c46d 143c d438 4b3e 1dec fb3d c78c 11bd
00000230: 6acc d93e 3798 a63e f4be b73e 7ca2 b83d
00000240: 1ca7 853d 20c4 083f a25d 363e 7fe9 6d3e
00000250: 9c02 c23d b73c 57be 7b78 093e 076e be3d
00000260: 5857 293e a388 743e a00f 4cbd e33d 82bd
00000270: 4eae 9cbd f288 d63d dcdf a03c 8b90 e7bd
00000280: 5d0f 383d 6069 dcbc 97b9 5ebd 368d e2bd
00000290: 7eee a1be 2387 34bd 9ead 2f3e a3ed 0a3d
000002a0: 2430 0abe ffba a1be 2834 5a3e e342 723e
000002b0: 0875 48bd 14f0 36be e0e8 00bf 3f3d 733e
000002c0: 76a8 433e 98c7 4c3e 39da 9a3d 0f1f f0ba
000002d0: 42ca c13d 1f99 863e ec73 423e 81fd 9d3d
000002e0: cc2c ff3d 9031 1a3e 6a67 4a3e e126 5a3e
000002f0: cb7b 523e d9b9 fd3d 5a8f e23e da56 073f
00000300: b269 073f 4762 003f 7778 4a3e e2fe 4e3f
00000310: 5246 4e3f a8b2 363f 0f65 223f a980 a33e
00000320: 2b33 b6be 73a2 fcbe 5a89 d7be 4f11 c7be
00000330: 3f7b 0abf 700b c1be 42d7 d4be 0129 00bf
00000340: d57f e8be 4c06 bebe a95c e7be bc96 c7be
00000350: 71ea b5be a012 80be e8ca 8fbe 2d7e 93bd
00000360: 100b fbbd 1e62 7b3a 3225 13bd 59c1 84be
00000370: a66c 863e 6f04 1d3e 5e35 303e b93a 233e
00000380: 9a02 14be 5308 763e 0e3c d3bb 90a5 a6be
00000390: e1c7 92be 045d d3be 0aaf b43d b2bf 233c
000003a0: cce6 53be a01e e4be c915 87be de48 623d
000003b0: 064c d43d e1aa dc3a 3a8e 97be a321 d3bd
000003c0: e9d8 183d ceb9 d33d bcf9 2cbd 684b 77be
000003d0: b189 81bb 0a33 87bc 6295 4dbe abe1 4ebe
000003e0: e5c3 89bd 8ea4 a5ba 1a09 803e e509 af3d
000003f0: 82a7 83be 39c7 e4be 08c9 16bf c4a5 103e

conv1.bias f4 [6]
-0.5039318 1.1309392 0.2935387 -0.1436335 -1.1120317 -0.36664948
00000000: ad01 01bf 9ec2 903f b44a 963e a914 13be
00000010: 0e57 8ebf 7bb9 bbbe

conv2.weight f4 [16, 6, 5, 5]
0.13975415 0.2350164 -0.21394198 0.16970891 0.26496372 0.08813958 -0.14828813 -0.7835543
-0.6121193 -0.1284444 -0.12111563 -0.08715167 -0.8172151 -0.97539586 -0.28088114 -0.09234336
0.23315628 -0.07366164 -0.11040335 0.32306027 -0.3150121 0.026729885 0.18553653 0.1863892
0.7169626 -0.10772661 -0.12690811 -0.17968825 -0.54231954 -0.25451386 0.17185764 -0.27012837
0.02096342 -0.37217546 -0.71767074 0.08555181 -0.6353933 -0.44185582 -0.057462707 -0.107898355
-0.33200723 -0.88068914 -1.0374849 -0.49840823 0.12655531 0.41201738 0.12721787 -0.13615511
0.04328427 0.22782062 0.59818953 0.53899795 0.12847462 0.025575832 0.5251432 0.0100960955
0.021822026 -0.132265 -0.40496325 -0.22509304 -0.24122593 -0.5948856 -0.06976398 0.18886186
0.33358935 -0.5578995 -0.74899083 -0.15326342 0.46467718 0.73398685 0.31685072 0.08832447
0.1551819 0.50237066 1.0561713 -0.55899537 -0.44892606 -0.50570667 -0.35621983 -0.38905945
-0.15486397 0.12842217 0.078428805 -0.017176788 -0.30240083 0.19620374 0.004304794 0.16320543
0.3677433 -0.39973542 0.5892066 -0.26628783 -0.24535325 0.030092001 -0.36980832 0.27454665
-0.7878986 -1.0152986 -0.5564699 -0.74633 0.08469634 0.1785704 0.10280565 0.08608462
0.23304911 0.07219251 0.27998856 0.3306582 0.47429642 0.13926168 0.31715232 0.151847
0.48029602 0.9434813 0.04529191 0.4564156 0.084134795 0.20575032 0.46870422 -0.3804827
0.8574971 0.033554066 -0.06940708 -0.14476131 -0.42323542 -0.92058426 -0.83749217 -0.715564
-0.36764935 -0.22830324 -0.38783988 -0.5391222 -0.7012036 -0.26066568 0.25326133 -0.19271715
0.26915306 -0.27345392 -0.5828243 -0.2786604 0.54890245 0.48385048 0.095353656 -0.36171386
-0.7141505 -0.25646937 -0.18570364 0.033967037 -0.19769152 -0.7775542 1.2001427 0.9960342
1.0685235 0.7687636 0.67340565 0.095331356 -0.2567227 -0.048261356 0.017085068 0.29362363
-0.16705123 -0.62711054 -0.4543935 -0.33123815 -0.117294036 -0.09528099 -0.39148423 -0.19333437
-0.33410233 -0.2814288 0.07976367 0.017689383 0.0015646551 -0.21748455 -0.11149744 -0.1598105
-0.35623914 -0.6394752 -0.3294052 -0.2852857 0.45201853 0.3696596 0.061783254 -0.08169138
-0.3560633 0.48894563 0.67907 0.1478888 0.047512542 -0.2521589 -0.0045871558 0.15481931
-0.10458974 -0.31098756 -0.539717 -0.14134695 -0.5719292 -0.50692695 -0.3311924 -0.6369155
0.5573293 0.15340574 -0.07725544 -0.029953882 -0.14064696 0.47872669 0.19748375 0.13440266
0.09058236 -0.0692874 0.23315947 0.13999765 -0.060134888 0.047761034 0.003203273 -0.120265596
-0.07506539 -0.055258553 0.11006823 -0.23528202 -0.67603284 -0.7090779 -0.3757519 -0.31842303
-0.4835228 -0.832927 -0.708501 -0.34885094 0.38111478 0.6257036 -0.8474522 -0.58765864
-0.28680328 0.14863542 0.4862042 -0.7806392 -0.09351466 0.18088295 0.40586552 0.46917567
-0.94207805 -0.027037488 0.2726471 0.51283896 0.39696917 -1.0425228 -0.03222392 0.0077823787
0.48495698 0.2806664 0.23162307 -0.4615875 -0.59122074 -0.63536894 -0.94963646 0.39257425
00000000: b61b 0f3e 24a8 703e 9b13 5bbe 2cc8 2d3e
00000010: 53a9 873e 8682 b43d d8d8 17be 0497 48bf
00000020: dab3 1cbf ee86 03be 790b f8bd 937c b2bd
00000030: 0235 51bf 8bb3 79bf a7cf 8fbe 841e bdbd
00000040: 85c0 6e3e eadb 96bd 271b e2bd 2868 a53e
00000050: 4449 a1be a2f8 da3c 4afd 3d3e cfdc 3e3e
00000060: dc8a 373f c59f dcbd 33f4 01be 3200 38be
00000070: 74d5 0abf a44f 82be 73fb 2f3e 444e 8abe
00000080: 7abb ab3c c88d bebe 45b9 37bf ca35 af3d
00000090: 23a9 22bf ed3a e2be 045e 6bbd d0f9 dcbd
000000a0: dafc a9be d874 61bf 4ecc 84bf 5d2f ffbe
000000b0: b797 013e f1f3 d23e 6745 023e 3f6c 0bbe
000000c0: d94a 313d cf49 693e f322 193f c5fb 093f
000000d0: da8e 033e 6884 d13c c96f 063f 186a 253c
000000e0: 1bc4 b23c 7a70 07be 5857 cfbe ca7e 66be
000000f0: ee03 77be 6c4a 18bf 6be0 8ebd 0165 413e
00000100: 39cc aa3e 80d2 0ebf ddbd 3fbf 16f1 1cbe
00000110: 2bea ed3e 90e6 3b3f 423a a23e 76e3 b43d
00000120: 01e8 1e3e 5d9b 003f 9f30 873f 521a 0fbf
00000130: a3d9 e5be fe75 01bf 7262 b6be cd32 c7be
00000140: a994 1ebe 1a81 033e 489f a03d 56b6 8cbc
00000150: 48d4 9abe a2e9 483e 3b0f 8d3b 531f 273e
00000160: da48 bc3e 1faa ccbe 3ed6 163f e156 88be
00000170: e23d 7bbe 8083 f63c 8457 bdbe 6191 8c3e
00000180: b9b3 49bf 4ef5 81bf d074 0ebf 7c0f 3fbf
00000190: 4675 ad3d 29db 363e c58b d23d 224d b03d
000001a0: 6da4 6e3e abd9 933d a95a 8f3e 084c a93e
000001b0: fbd6 f23e 9d9a 0e3e ca61 a23e c87d 1b3e
000001c0: 5ce9 f53e fe87 713f 0384 393d 4eaf e93e
000001d0: dd4e ac3d 36b0 523e 00fa ef3e a1ce c2be
000001e0: ee84 5b3f fd6f 093d 4d25 8ebd 4f3c 14be
000001f0: 50b2 d8be 69ab 6bbf e365 56bf 342f 37bf
00000200: 893c bcbe 53c8 69be f392 c6be ea03 0abf
00000210: 1482 33bf f975 85be 78ab 813e a557 45be
00000220: 6ece 893e 2702 8cbe f933 15bf 93ac 8ebe
00000230: df84 0c3f 40bb f73e c748 c33d 8f32 b9be
00000240: 91d2 36bf f44f 83be 1829 3ebe 0521 0b3d
00000250: a56f 4abe cb0d 47bf 479e 993f 19fc 7e3f
00000260: 61c5 883f b1cd 443f 5064 2c3f 163d c33d
00000270: 2871 83be b3ad 45bd fcf5 8b3c d655 963e
00000280: 7a0f 2bbe 518a 20bf 44a6 e8be 0c98 a9be
00000290: db37 f0bd ae22 c3bd 9f70 c8be 72f9 45be
000002a0: 760f abbe 7017 90be 235b a33d 53e9 903c
000002b0: 1d15 cd3a 45b4 5ebe c558 e4bd 5da5 23be
000002c0: fa64 b6be a6b4 23bf cca7 a8be f810 92be
000002d0: f96e e73e 0644 bd3e 7010 7d3d cf4d a7bd
000002e0: ee4d b6be 1557 fa3e 88d7 2d3f 2970 173e
000002f0: 839c 423d f91a 81be da4f 96bb f488 1e3e
00000300: 2533 d6bd c339 9fbe e52a 0abf 41bd 10be
00000310: f469 12bf f7c5 01bf 0d92 a9be e50c 23bf
00000320: 22ad 0e3f 6516 1d3e 1a38 9ebd d861 f5bc
00000330: c205 10be aa1b f53e 2e39 4a3e daa0 093e
00000340: 3f83 b93d 8de6 8dbd 5bc1 6e3e 8b5b 0f3e
00000350: 0050 76bd 13a1 433d 01ee 513b cf4d f6bd
00000360: e2bb 99bd cb56 62bd 746b e13d c5ed 70be
00000370: 7d10 2dbf 2186 35bf 8e62 c0be 5808 a3be
00000380: 4d90 f7be b43a 55bf 5260 35bf 979c b2be
00000390: 7a21 c33e 1c2e 203f a1f2 58bf cc70 16bf
000003a0: e1d7 92be e233 183e c2ef f83e f8d7 47bf
000003b0: 9d84 bfbd 6139 393e 9bcd cf3e cb37 f03e
000003c0: 072c 71bf b97d ddbc 6798 8b3e 6a49 033f
000003d0: 8b3f cb3e 6371 85bf 3bfd 03bd 5303 ff3b
000003e0: 484c f83e 82b3 8f3e 992e 6d3e 3255 ecbe
000003f0: 3e5a 17bf 8aa7 22bf 601b 73bf 7eff c83e

conv2.bias f4 [16]
0.2021173 -1.1820929 0.7897633 1.1462656 1.5913726 -1.1600233 0.9308444 -2.3730617
-0.097812764 -0.9403032 -0.7186853 1.2412027 0.63970006 0.007976379 0.82658243 1.6037183
00000000: d6f7 4e3e d24e 97bf ed2d 4a3f d5b8 923f
00000010: 19b2 cb3f a57b 94bf d24b 6e3f 3ee0 17c0
00000020: 0f52 c8bd b6b7 70bf c3fb 37bf bbdf 9e3f
00000030: 62c3 233f 5caf 023c e89a 533f a446 cd3f

fc_conv.weight f4 [120, 16, 5, 5]
-0.35091862 -0.3283408 -0.5220976 0.24059384 0.407968 -0.052020665 -0.36443126 -0.4699157
-0.46541122 0.4636021 -0.030213935 -0.043906853 0.35183263 -0.43017295 0.21137354 0.12735091
0.34683567 0.49650627 -0.27004433 -0.34267223 0.3558712 0.7688351 -0.18902498 -0.58562624
0.08631486 0.08961195 -0.43094343 -0.82127357 -0.20789632 -0.47112572 -0.14584309 -0.7892862
-0.39656818 -0.44078052 0.023389027 -0.3837939 -0.793194 -0.06508541 0.97992903 0.14539136
-0.28396884 -0.18620928 -0.15141872 0.32490757 0.20742865 -0.037689213 0.11612783 0.28364867
0.37755162 0.4572419 0.66013604 0.9597957 1.5440725 0.8378076 0.117404185 -0.11783862
0.24253273 0.20580336 0.14457187 -0.54838 -0.5703693 -0.47128153 -0.43558127 0.009453962
0.03690717 -0.34443107 -0.3079067 -0.767256 -0.15702887 -0.027834529 -0.8991207 -0.3183323
-1.1052784 -0.01952381 -0.09281827 -0.92306775 0.19549519 0.06476245 0.4476342 0.11007041
-0.6657985 0.24562599 0.40763703 -0.23238395 0.7698131 -0.25991106 0.08698448 0.40319937
-0.2633204 0.41312906 0.1362124 -0.19166967 -0.46375126 -0.20104693 -0.3332874 -0.6679793
-0.18156262 -0.5914046 -0.45362148 -0.16414545 -0.5950652 0.7562134 0.099750906 0.54425275
0.77743876 -0.29836348 0.09957978 0.032078348 0.92221683 0.6167315 -0.48153982 0.45131814
0.043759987 -0.2995291 0.2965036 0.59628004 0.8726469 0.29480955 -0.15118611 0.39659938
0.8648957 0.414955 -0.14922766 -0.57891333 0.58099335 -0.020094896 -0.15537263 -0.3862825
-0.5777821 -0.5301243 -0.43144268 -0.32857674 -0.28088367 -0.17734553 -0.96230453 -0.48308665
-0.5350901 -0.6718387 -0.5053736 -0.3381092 -0.41099057 -0.054924753 0.037089806 -0.24451995
0.20697491 -0.47447813 -0.7854071 -0.4218745 0.37992737 0.16225855 0.36861676 -0.11270591
0.44308633 0.67038476 0.2135149 -0.28989166 -0.0034764213 0.36618495 -0.23156111 0.108075
0.7276462 -0.3320819 0.24167953 -0.25110888 -0.15041307 0.18937992 -0.7929532 0.10496613
-0.46995664 0.09094532 -0.62361264 -0.14608668 -0.1211201 0.31265876 0.46706417 0.0949961
0.6822174 0.849051 0.5374557 0.030778117 0.13150191 0.3238919 0.5067663 0.3590725
0.44184336 0.24204053 0.27940214 0.26242048 0.5566695 0.6063557 -0.21685842 -0.17725097
-0.07725099 0.17664135 -0.0028638744 -0.07510557 -0.35872203 -0.3510864 -0.25157735 -0.25906545
0.26910734 -0.2994656 0.26260847 0.04144249 0.1255747 0.46393076 0.00957697 -0.07117377
-0.07193323 0.115076736 0.5487835 0.5297544 0.48548242 0.14931868 1.0063435 0.2754224
0.117613815 0.4141528 0.39940676 0.9870766 0.43111813 0.25441754 0.2156262 0.06724391
0.4626665 0.34646258 0.6220816 0.39529136 1.316372 1.5403788 0.58390373 0.7216942
-0.16764538 0.23843625 0.53529453 0.0982346 0.10337621 -0.20576978 -0.3418017 0.21187851
0.17939532 0.27980617 0.18213527 -0.19572745 -0.20316926 -0.3303691 -0.16814665 -0.018925855
-0.050544165 0.5356692 0.2904501 0.31764808 0.3136485 0.2847975 0.7487931 -0.008520125
00000000: 9bab b3be 491c a8be 30a8 05bf 3b5e 763e
00000010: 2fe1 d03e 9f13 55bd bc96 babe ca98 f0be
00000020: 614a eebe 415d ed3e 3783 f7bc acd7 33bd
00000030: 6823 b43e a13f dcbe 4e72 583e 4768 023e
00000040: 7294 b13e 1236 fe3e 4043 8abe bc72 afbe
00000050: c034 b63e 61d2 443f c48f 41be 9aeb 15bf
00000060: d8c5 b03d 7886 b73d 9ea4 dcbe fc3e 52bf
00000070: c6e2 54be 6437 f1be e457 15be a90e 4abf
00000080: fc0a cbbe fcad e1be 589a bf3c a280 c4be
00000090: c30e 4bbf 804b 85bd a1dc 7a3f 79e1 143e
000000a0: 5d64 91be a5ad 3ebe 820d 1bbe 495a a63e
000000b0: 2d68 543e 0160 1abd 6ed4 ed3d 663a 913e
000000c0: 724e c13e 9c1b ea3e adfe 283f 2cb5 753f
000000d0: 2ba4 c53f 8f7a 563f 9b71 f03d 6055 f1bd
000000e0: 805a 783e 1ebe 523e a60a 143e a262 0cbf
000000f0: b903 12bf d04b f1be 8204 dfbe cae4 1a3c
00000100: f92b 173d 4559 b0be f2a5 9dbe e46a 44bf
00000110: 2dcc 20be 3d05 e4bc c62c 66bf 74fc a2be
00000120: c379 8dbf 66f0 9fbc 8117 bebd 2b4e 6cbf
00000130: e42f 483e 2da2 843d 4f30 e53e 986c e13d
00000140: c571 2abf 6185 7b3e cdb5 d03e 0ff6 6dbe
00000150: 7912 453f 1013 85be eb24 b23d 2670 ce3e
00000160: eed1 86be a785 d33e 437b 0b3e 0e45 44be
00000170: ce70 edbe 3fdf 4dbe a5a4 aabe b100 2bbf
00000180: 8deb 39be 4b66 17bf 1341 e8be bf15 28be
00000190: 3156 18bf 3497 413f 344a cc3d 2654 0b3f
000001a0: 3a06 473f 19c3 98be 7cf0 cb3d 9664 033d
000001b0: 6716 6c3f 1ee2 1d3f 638c f6be 2c13 e73e
000001c0: ac3d 333d e15b 99be 52cf 973e cfa5 183f
000001d0: ca65 5f3f 47f1 963e 88d0 1abe 130f cb3e
000001e0: ce69 5d3f fb74 d43e 23cf 18be aa33 14bf
000001f0: fbbb 143f 0d9e a4bc 011a 1fbe d2c6 c5be
00000200: 87e9 13bf 3ab6 07bf 0ee6 dcbe 363b a8be
00000210: fccf 8fbe 119a 35be 9759 76bf 2257 f7be
00000220: aafb 08bf 9ffd 2bbf 2a60 01bf a61c adbe
00000230: 5b6d d2be c7f8 60bd 7beb 173d 7063 7abe
00000240: 3bf1 533e ccee f2be 7110 49bf efff d7be
00000250: d785 c23e 1b27 263e 56bb bc3e 5bd2 e6bd
00000260: 36dc e23e 569e 2b3f a6a3 5a3e ae6c 94be
00000270: acd4 63bb 987c bb3e 5b1e 6dbe 6d56 dd3d
00000280: 0547 3a3f a406 aabe d77a 773e 5891 80be
00000290: e205 1abe cfec 413e fbfe 4abf 7bf8 d63d
000002a0: 289e f0be 8a41 ba3d 14a5 1fbf bf97 15be
000002b0: d10d f8bd cf14 a03e 0923 ef3e 518d c23d
000002c0: cda5 2e3f 685b 593f b296 093f 6422 fc3c
000002d0: 70a8 063e 29d5 a53e 70bb 013f 5ad8 b73e
000002e0: 4b39 e23e 79d9 773e cc0d 8f3e fa5b 863e
000002f0: e481 0e3f 213a 1b3f 2210 5ebe 4781 35be
00000300: c435 9ebd 78e1 343e d7af 3bbb f3d0 99bd
00000310: 6aaa b7be 99c1 b3be bfce 80be 3aa4 84be
00000320: 70c8 893e 8e53 99be 9e74 863e 9abf 293d
00000330: a796 003e 5588 ed3e b9e8 1c3c 8ec3 91bd
00000340: bb51 93bd 5aad eb3d 137d 0c3f fc9d 073f
00000350: 2791 f83e ffe6 183e ddcf 803f 2a04 8d3e
00000360: 83df f03d d60b d43e 0b7f cc3e 0db1 7c3f
00000370: 84bb dc3e 0443 823e 1dcd 5c3e 2db7 893d
00000380: a0e2 ec3e 8b63 b13e bd40 1f3f a163 ca3e
00000390: e17e a83f 222b c53f b77a 153f f3c0 383f
000003a0: 3bab 2bbe a228 743e 1009 093f 392f c93d
000003b0: e8b6 d33d 50b5 52be a200 afbe aef6 583e
000003c0: 68b3 373e c142 8f3e ab81 3a3e c76c 48be
000003d0: 9a0b 50be 2426 a9be a32e 2cbe 650a 9bbc
000003e0: 6607 4fbd 9e21 093f e0b5 943e c5a2 a23e
000003f0: 8996 a03e fad0 913e e8b0 3f3f ff97 0bbc

fc_conv.bias f4 [120]
-0.56879056 -0.81746244 -1.5042721 0.65418863 -1.344016 -0.4710542 -0.07013809 -0.26536337
0.6532939 0.115361385 -0.41693637 -0.72395664 -1.8804138 0.12735291 0.47859728 0.73896915
-0.5900869 -0.2250666 0.03275068 1.2753203 0.20461175 -0.68610495 -0.102212526 -2.6639605
0.72497064 0.14892423 -1.0351076 0.104740545 -1.1049483 0.2948914 -0.37471315 0.71415293
-0.2253062 1.3964466 0.3989094 -0.41304132 0.17760287 0.28868505 -0.11737669 0.8723038
-1.4275607 0.17454518 0.6620246 0.20005637 0.7984947 -1.172538 -0.40492436 -0.27274764
-0.31856632 -0.9570511 -0.25454637 -0.90542287 0.57328767 -0.5477582 -0.47176272 0.15978041
-0.8001458 0.0062605687 -0.033363298 -0.28835496 0.6260869 -0.4065001 1.6224215 -0.30223697
0.48065665 -1.3282247 0.7257204 0.37948322 0.7705388 -0.54645747 0.25860828 0.17140496
0.09390243 -0.14394967 -0.20225962 -0.47350413 -0.17053765 1.3924805 -0.085106455 -0.16991565
0.38448456 0.4346557 -0.5077383 0.07696142 0.3010821 -0.5609922 0.44101286 -0.47621554
-0.9619559 -1.0499845 -0.7761741 0.13378218 0.8213546 -1.4976922 -0.33757883 0.07478085
-0.19455214 -0.9054831 0.15687059 0.75500584 0.8066286 0.02185549 0.13143153 0.3553953
0.498507 1.7725489 0.41699204 -0.43305779 -0.108214915 -0.65437716 0.8232669 0.01315455
0.6119812 0.5118158 -1.0411086 -0.20246321 -0.62590903 0.057202455 -0.0031712072 -0.08884893
00000000: 429c 11bf 3845 51bf fd8b c0bf e878 273f
00000010: b708 acbf 042e f1be 8fa4 8fbd b5dd 87be
00000020: 453e 273f 9742 ec3d af78 d5be 3955 39bf
00000030: 66b1 f0bf cd68 023e b40a f53e 152d 3d3f
00000040: ef0f 17bf dc77 66be 9425 063d b23d a33f
00000050: be85 513e 93a4 2fbf cd54 d1bd 547e 2ac0
00000060: ad97 393f 987f 183e 687e 84bf 3682 d63d
00000070: f26e 8dbf 01fc 963e 67da bfbe bad2 363f
00000080: abb6 66be c3be b23f da3d cc3e 277a d3be
00000090: 87dd 353e 87ce 933e 3163 f0bd 4d4f 5f3f
000000a0: 4fba b6bf f9bb 323e 727a 293f 94db 4c3e
000000b0: 266a 4c3f ba15 96bf 3f52 cfbe 94a5 8bbe
000000c0: 201b a3be 4d01 75bf e753 82be cbc9 67bf
000000d0: fbc2 123f e239 0cbf e28a f1be 7a9d 233e
000000e0: 5bd6 4cbf 7525 cd3b f4a7 08bd 43a3 93be
000000f0: 3b47 203f c820 d0be 82ab cf3f cebe 9abe
00000100: a118 f63e 4403 aabf d0c8 393f a04b c23e
00000110: 0842 453f a3e4 0bbf 4e68 843e c884 2f3e
00000120: eb4f c03d 8b67 13be 251d 4fbe 226f f2be
00000130: 6ca1 2ebe cd3c b23f 4b4c aebd 5efe 2dbe
00000140: 29db c43e 318b de3e 23fb 01bf f39d 9d3d
00000150: 6f27 9a3e 2f9d 0fbf 70cc e13e 86d2 f3be
00000160: be42 76bf e465 86bf 59b3 46bf 32fe 083e
00000170: 4c44 523f 61b4 bfbf 22d7 acbe b426 993d
00000180: ad38 47be becd 67bf afa2 203e 1048 413f
00000190: 367f 4e3f 490a b33c fd95 063e 5ff6 b53e
000001a0: 4f3c ff3e e2e2 e23f fb7f d53e c0b9 ddbe
000001b0: c89f ddbd 4385 27bf 9fc1 523f 2f86 573c
000001c0: cdaa 1c3f 5c06 033f 0c43 85bf 8452 4fbe
000001d0: 933b 20bf 1f4d 6a3d 07d4 4fbb 6ef6 b5bd

fc1.weight f4 [84, 120]
-0.3321718 0.5091008 -0.35518333 0.35257924 -0.19897805 0.27044225 -0.26651815 0.381204
0.24975115 0.16147575 -0.4204242 0.030849883 -0.14713444 -0.38359395 -0.45544103 0.010672463
0.2440564 0.32528126 0.33218098 0.7783858 -0.47823298 -0.87190425 -0.35286808 -0.47134396
-0.42326057 -0.28379035 -0.19464241 -0.0731729 -0.46899164 -0.25533202 -0.45713422 0.0055985358
-0.10769522 -0.20499583 -0.024121976 -0.15607645 0.2272065 -0.02423712 -0.12939715 0.4576601
-0.27539653 0.37509528 0.028473495 -0.09717486 1.0085642 -0.765057 0.082315706 -0.45316198
0.117567204 0.7426491 -0.47160307 0.14699368 -0.106222935 0.3087516 0.15658693 -0.4665829
-0.31454194 -0.2900714 0.29386815 -0.08321785 0.22676578 -0.4795609 -0.10152913 0.5580875
-0.5708423 -0.32255247 0.19312754 -0.35897347 -0.35293266 0.09523608 0.09806151 -0.044597372
0.22787827 0.1381854 0.17950065 0.21889232 0.64311695 0.5878081 -0.2330248 0.06462456
-0.3820719 -0.14504291 -0.09321071 0.32294115 0.10967334 0.61526024 -0.7097978 -0.7470511
0.118843935 0.28570542 -0.16032177 -0.15153557 -0.3215784 -0.09143924 -0.15563664 0.32217795
0.09551916 -0.30148664 -0.17397223 -0.32729176 0.6451138 0.34936246 0.1415437 -0.017576557
-0.115491495 -0.085553184 0.9689951 -0.16024138 0.15817542 -0.79323363 0.2025064 -0.22743334
-0.8621904 0.17960636 0.04790034 0.09217151 0.2640879 -0.36199123 0.56624913 -0.019334523
0.92663103 0.18360148 0.023918858 -0.13069041 -0.349458 0.22982034 0.071675524 0.21639706
-0.21064194 0.48664042 0.14606792 0.05166494 -0.17266595 0.35787225 0.5667007 -0.3495583
-0.46084297 0.19647586 0.0182557 0.08149151 0.5272077 0.2374403 0.34765035 -0.025158256
-0.5811608 0.32293838 -0.091408364 0.066857584 -0.8327683 0.14345413 0.049401537 -0.41146678
-0.14192499 -0.25253195 0.13985376 0.23489256 -0.1908421 0.22799012 0.07596128 0.06894009
0.02601383 -0.090261996 -0.16387564 -0.40316877 -0.6303471 -0.56275064 -0.41874304 -0.3703164
0.0011193709 -0.3788532 -0.14940435 0.85320514 0.54914767 -0.17382415 0.5419026 0.23894879
-0.22383592 -0.3264118 -0.07012033 0.7989118 -0.06459161 0.12362013 -0.01945775 0.0026938198
0.3254668 0.43279627 0.2696443 -0.18621293 0.2114429 -0.26622745 0.45688397 -0.2860248
0.097667485 -0.11641039 0.24134247 -0.67505264 0.48181397 0.82559586 -0.9729048 -0.199176
0.009004356 0.0400868 0.21609326 0.52441484 0.21263985 0.6863208 -0.58889455 0.71188205
0.33657262 0.09416551 0.59577733 0.046365153 0.33830363 0.12658477 -0.01209203 0.30814356
-0.030569099 -0.85306346 0.17584555 0.058658887 0.68919843 0.15750855 0.23294757 -0.042164207
-0.14448617 0.41575718 0.08079047 0.5723537 0.002912943 -0.24435273 -0.08224956 -0.019343233
0.62152934 -0.10918488 0.3861891 -0.09997284 -0.21792263 0.17671873 -0.112020425 -0.12127135
-0.27614132 0.31824264 0.08314541 -0.20339048 0.8056853 -0.194026 -0.50328743 -0.46108434
-0.18940164 0.28932345 -0.15784846 -0.5458516 -0.13363981 0.29649672 0.77353084 0.588337
00000000: 6c12 aabe 6e54 023f 97da b5be 4485 b43e
00000010: e7c0 4bbe 6877 8a3e 1175 88be 2c2d c33e
00000020: c4be 7f3e e659 253e d741 d7be e5b8 fc3c
00000030: 69aa 16be 6d66 c4be 912f e9be 8edb 2e3c
00000040: ece9 793e 448b a63e a013 aa3e 4b44 473f
00000050: f4da f4be 1e35 5fbf 20ab b4be ff53 f1be
00000060: 9cb5 d8be f84c 91be 5750 47be acdb 95bd
00000070: ac1f f0be e1ba 82be 7f0d eabe ec73 b73b
00000080: 508f dcbd 6dea 51be 739b c5bc 81d2 1fbe
00000090: d2a8 683e ed8c c6bc b080 04be 6d52 ea3e
000000a0: c600 8dbe 7d0c c03e 3f41 e93c 9d03 c7bd
000000b0: a218 813f c7da 43bf 2395 a83d d904 e8be
000000c0: 13c7 f03d 401e 3e3f f575 f1be 8385 163e
000000d0: 698b d9bd b114 9e3e 5358 203e f4e3 eebe
000000e0: a40b a1be 3d84 94be e375 963e 1f6e aabd
000000f0: 4a35 683e 0289 f5be 81ee cfbd d3de 0e3f
00000100: b922 12bf 9925 a5be 3ac3 453e 5fcb b7be
00000110: 97b3 b4be 220b c33d 79d4 c83d bcab 36bd
00000120: ec58 693e 7980 0d3e 05cf 373e 4f25 603e
00000130: 50a3 243f 977a 163f 0e9e 6ebe e259 843d
00000140: ee9e c3be 2186 14be 42e5 bebd 8b58 a53e
00000150: 6b9c e03d b281 1d3f 4fb5 35bf be3e 3fbf
00000160: 7364 f33d fb47 923e 642b 24be 242c 1bbe
00000170: eda5 a4be 7f44 bbbd 365f 1fbe 82f4 a43e
00000180: 8d9f c33d 755c 9abe c725 32be c992 a7be
00000190: 2e26 253f a3df b23e d5f0 103e b6fc 8fbc
000001a0: ce86 ecbd 8236 afbd 1010 783f 5116 24be
000001b0: bdf8 213e 5c11 4bbf d65d 4f3e 49e4 68be
000001c0: 83b8 5cbf bbea 373e 2633 443d 6bc4 bc3d
000001d0: 8736 873e ea56 b9be b4f5 103f 6f63 9ebc
000001e0: b137 6d3f 0702 3c3e 7bf1 c33c b5d3 05be
000001f0: 29ec b2be 0656 6b3e 9eca 923d 3197 5d3e
00000200: 85b2 57be ef28 f93e d492 153e 9e9e 533d
00000210: 58cf 30be 083b b73e 4c13 113f 4ef9 b2be
00000220: 9cf3 ebbe f830 493e fa8c 953c 05e5 a63d
00000230: 15f7 063f 8d23 733e 3aff b13e b018 cebc
00000240: f4c6 14bf 2e58 a53e 4f34 bbbd a1ec 883d
00000250: 4e30 55bf a4e5 123e 4459 4a3d c6ab d2be
00000260: c954 11be de4b 81be d335 0f3e ad87 703e
00000270: 1d6c 43be 3e76 693e 9691 9b3d 7630 8d3d
00000280: f51a d53c 48db b8bd 04cf 27be 236c cebe
00000290: 6d5e 21bf 6d10 10bf 7d65 d6be 1c9a bdbe
000002a0: dbb7 923a 0cf9 c1be 74fd 18be a76b 5a3f
000002b0: f194 0c3f f5fe 31be 21ba 0a3f feae 743e
000002c0: 3e35 65be 731f a7be 3f9b 8fbd 7c85 4c3f
000002d0: 9b48 84bd 8d2c fd3d dc65 9fbc cc8a 303b
000002e0: 96a3 a63e 7997 dd3e d10e 8a3e 9aae 3ebe
000002f0: 7d84 583e f74e 88be b2ec e93e d871 92be
00000300: e405 c83d 9268 eebd 7b22 773e 40d0 2cbf
00000310: 52b0 f63e 405a 533f 4a10 79bf cbf4 4bbe
00000320: 0287 133c 0e32 243d 8d47 5d3e 0d40 063f
00000330: 43be 593e b8b2 2f3f cbc1 16bf e73d 363f
00000340: 3f53 ac3e d9d9 c03d dd84 183f 63e9 3d3d
00000350: 2236 ad3e 709f 013e a61d 46bc fec4 9d3e
00000360: 0c6c fabc 5e62 5abf db10 343e 4d44 703d
00000370: 4f6f 303f ec49 213e cf89 6e3e 60b4 2cbd
00000380: 2ff4 13be 20de d43e 7975 a53d c685 123f
00000390: 13e7 3e3b 9a37 7abe 7572 a8bd b375 9ebc
000003a0: 8c1c 1f3f 539c dfbd 94ba c53e 8fbe ccbd
000003b0: 1c27 5fbe c1f5 343e f76a e5bd 1d5d f8bd
000003c0: 6562 8dbe b3f0 a23e 2448 aa3d 9845 50be
000003d0: 6441 4e3f c0ae 46be 72d7 00bf 3f13 ecbe
000003e0: 81f2 41be 3422 943e 07a3 21be eebc 0bbf
000003f0: e0d8 08be 6bce 973e 1e06 463f 419d 163f

fc1.bias f4 [84]
0.68830717 0.662437 -0.14563292 -2.0417218 0.2050058 -0.027373374 -0.048156735 0.5777614
-0.15553373 -0.7775952 -1.0768367 0.3117442 -0.37637284 -1.0472823 0.013182958 0.5430584
0.26679286 -0.3573365 -0.6172046 0.42256442 -0.5462393 -0.0073058386 0.19369479 0.43895677
-0.4895518 0.12173985 -1.548757 0.48037478 -0.9539383 -0.71489906 0.26398045 -0.50630665
0.115272395 0.07649776 0.92050153 -0.5475926 -0.14855127 -1.254675 -0.29634818 0.5371391
1.103817 0.932001 -0.013825802 0.13368416 0.18025115 -0.18687634 -0.7860906 -0.96417236
0.038385797 -1.4515208 0.15866356 -0.19750682 0.6972071 -0.14505851 0.21473603 -0.32774252
0.61660975 0.66881025 -0.2290183 0.2558069 0.48412967 -0.29423788 0.83840424 0.5516082
0.4506741 -0.01873577 0.26346603 -1.183042 -0.82505757 -0.5344698 -0.32073587 0.6362679
0.16314574 0.26748604 -0.67341447 -0.032246005 -0.037774477 0.38274235 0.034600947 1.2774291
-0.047307074 -0.52605474 0.715912 -0.09340988
00000000: e634 303f 7995 293f cc20 15be 92ab 02c0
00000010: 0aed 513e 203e e0bc ff3f 45bd 2ce8 133f
00000020: 3c44 1fbe 7b10 47bf c9d5 89bf f09c 9f3e
00000030: f1b3 c0be 590d 86bf 55fd 573c e005 0b3f
00000040: 1399 883e cff4 b6be 1f01 1ebf 5d5a d83e
00000050: 57d6 0bbf d165 efbb ed57 463e f1be e03e
00000060: 89a6 fabe be52 f93d ab3d c6bf aff3 f53e
00000070: 4d35 74bf a003 37bf 7228 873e 509d 01bf
00000080: ef13 ec3d dcaa 9c3d fda5 6b3f 072f 0cbf
00000090: d31d 18be 3199 a0bf f3ba 97be f381 093f
000000a0: e049 8d3f 9e97 6e3f 9e85 62bc 80e4 083e
000000b0: c293 383e 835c 3fbe 3c3d 49bf 00d4 76bf
000000c0: 6d3a 1d3d 6fcb b9bf b378 223e 3a3f 4abe
000000d0: 2a7c 323f 388a 14be c3e3 5b3e decd a7be
000000e0: 23da 1d3f 2637 2b3f c683 6abe 1ff9 823e
000000f0: d8df f73e 59a6 96be a9a1 563f 3236 0d3f
00000100: c1be e63e c27b 99bc 05e5 863e ec6d 97bf
00000110: f936 53bf 03d3 08bf 7e37 a4be 74e2 223f
00000120: ad0f 273e eef3 883e e464 2cbf 6314 04bd
00000130: 69b9 1abd cef6 c33e b9b9 0d3d cc82 a33f
00000140: 10c5 41bd 86ab 06bf 0246 373f ae4d bfbd

fc2.weight f4 [100, 84]
0.3695734 -0.12038895 0.2019585 -0.115832515 0.072743066 0.06654899 0.4604437 -0.25293103
0.2342364 0.056337085 -0.5178047 -0.15808801 -0.18933366 0.22011958 -0.54481035 -0.6635356
0.30059895 0.07630462 -0.1834149 0.36225522 -0.3645849 -0.0014686254 0.1231028 0.39825135
-0.45310095 0.17147855 -0.39245325 0.10712174 -0.1696638 -0.09235104 0.5156799 0.026183045
-0.10390415 -0.09820547 0.26912552 0.6462779 0.3663287 -0.207491 0.1523084 0.026981672
0.21937129 -0.121680714 -0.40440062 0.035499644 0.073408514 -0.16673517 0.19425416 -0.23885292
-0.22495845 0.6690884 -0.070872776 -0.3064419 -0.15389998 -0.48398575 0.24728794 -0.29617634
-0.32027096 -0.6004007 -0.49412256 0.072293095 0.079105034 -0.12306041 -0.24064222 0.13528542
0.17374536 -0.6236639 0.13434488 -0.57911307 -0.15069905 -0.17460541 -0.24964608 0.10446737
-0.13961957 0.34303474 0.21782576 -0.034821223 -0.41662243 0.24110156 0.21942711 0.16373938
-0.30172148 0.36779705 -0.07234509 -0.11704106 -0.0943781 -0.15935822 -0.37732378 -0.6370412
-0.09197677 0.02035089 0.07552226 0.23798503 0.26596513 0.089372665 -0.7393742 -0.45232716
-0.29962128 0.08140209 0.20203201 -0.0020769536 0.2511354 -0.53822047 -0.12000364 -0.13085687
0.017242078 -0.37371174 -0.061798017 0.11343247 -0.37340057 -0.41978812 0.1240166 0.11784673
0.199507 0.2323439 0.41496015 0.32733777 0.13884386 -0.52626264 0.14454907 -0.21468563
0.41326463 -0.29136047 -0.17079964 -0.03147882 0.46398774 -0.016825752 -0.32036245 0.029990485
-0.013645543 0.24866845 0.28493747 -0.10338008 -0.29570296 0.16389023 0.2200529 0.22444482
0.24773979 0.14579643 0.16828153 -0.54552174 0.24443813 -0.34340128 -0.20475818 -0.34546655
0.26980203 -0.3200041 0.20022117 -0.043708555 0.036116656 -0.1055793 -0.21789162 -0.07603925
-0.014327775 0.16447349 -0.34441084 0.2949944 0.08981461 0.04967048 1.0508902 0.035336155
-0.09775759 0.0241299 -0.09597977 -0.0032663855 0.06093549 0.12598735 -0.36717054 0.4096668
-0.44604203 -0.110928915 0.02304727 0.22765644 0.11532594 -0.24447025 0.10213734 -0.09019521
0.23093349 -0.009086558 -0.022280248 -0.33639413 -0.051586527 0.22959508 0.3580124 -0.29388374
-0.10958506 -0.047940668 0.026994167 0.050646007 0.008170878 0.052821685 0.16591424 -0.18886635
-0.18779774 0.09753355 -0.010329477 0.20118304 -0.060220685 0.049918786 -0.1738711 -0.011895061
0.096531756 0.26126 0.4305651 0.20406711 0.052529674 -0.18851371 0.019970428 -0.07433655
0.1323268 0.013833042 0.07371615 0.012764472 -0.05249554 -0.17098285 -0.200374 -0.15128414
0.06443173 -0.09406467 0.26109102 0.060936827 -0.20685343 -0.004879626 -0.3587606 -0.024926528
0.15327193 -0.48030508 0.081088044 0.28410155 0.1064813 0.28990078 0.093864016 -0.1068754
0.07711655 -0.038287465 0.22500502 0.13878225 -0.05820794 -0.23946112 0.11401185 -0.079211995
0.10006733 -0.12677927 0.080716334 -0.029096004 0.043530192 0.046277523 -0.14603016 0.038039993
-6.643251e-05 0.07097168 0.28763914 0.33563733 -0.15582414 -0.26136175 0.05531138 -0.04359772
00000000: ba38 bd3e 7b8e f6bd 36ce 4e3e 9939 edbd
00000010: 51fa 943d d64a 883d 47bf eb3e 2d80 81be
00000020: abdb 6f3e b7c1 663d d98e 04bf d3e1 21be
00000030: afe0 41be 0767 613e b178 0bbf 78dd 29bf
00000040: 1be8 993e 9945 9c3d 1ed1 3bbe 8479 b93e
00000050: dfaa babe e47e c0ba 521d fc3d 9ae7 cb3e
00000060: d9fc e7be 1398 2f3e a2ef c8be a562 db3d
00000070: 59bc 2dbe 8b22 bdbd 9903 043f d37d d63c
00000080: b3cb d4bd f31f c9bd d2ca 893e 7872 253f
00000090: 6f8f bb3e 8578 54be bcf6 1b3e ab08 dd3c
000000a0: dea2 603e bd33 f9bd 990d cfbe 1368 113d
000000b0: 3457 963d a0bc 2abe 90ea 463e dc95 74be
000000c0: 825b 66be 6149 2b3f bf25 91bd f4e5 9cbe
000000d0: f597 1dbe fbcc f7be 0d39 7d3e 6da4 97be
000000e0: 8efa a3be dcb3 19bf a2fd fcbe 670e 943d
000000f0: d201 a23d 1907 fcbd ea6a 76be 4388 0a3e
00000100: 4eea 313e 70a8 1fbf b491 093e c140 14bf
00000110: da50 1abe c3cb 32be 39a3 7fbe fdf2 d53d
00000120: 6ff8 0ebe 40a2 af3e b70d 5f3e b3a0 0ebd
00000130: 894f d5be 54e3 763e 80b1 603e 4cab 273e
00000140: 3d7b 9abe e54f bc3e aa29 94bd 39b3 efbd
00000150: 4e49 c1bd cd2e 23be 9530 c1be 2215 23bf
00000160: 515e bcbd e9b6 a63c 6aab 9a3d 59b2 733e
00000170: 952c 883e 0409 b73d a147 3dbf 6d97 e7be
00000180: f667 99be 24b6 a63d 7be1 4e3e 801d 08bb
00000190: d294 803e d1c8 09bf 78c4 f5bd 58ff 05be
000001a0: 423f 8d3c 2557 bfbe eb1f 7dbd 484f e83d
000001b0: 5c2e bfbe 78ee d6be 6afc fd3d a059 f13d
000001c0: 904b 4c3e 8feb 6d3e a875 d43e d198 a73e
000001d0: 162d 0e3e 26b9 06bf ac04 143e 8dd6 5bbe
000001e0: 6c97 d33e 332d 95be 1ae6 2ebe efef 00bd
000001f0: cd8f ed3e 29d6 89bc 8c06 a4be 9bae f53c
00000200: 8e91 5fbc f1a2 7e3e 53e3 913e efb8 d3bd
00000210: 6166 97be d7d2 273e 8c55 613e ddd4 653e
00000220: 80af 7d3e a94b 153e fe51 2c3e 50a7 0bbf
00000230: fd4d 7a3e 4bd2 afbe 21ac 51be fee0 b0be
00000240: 7e23 8a3e 94d7 a3be c706 4d3e be07 33bd
00000250: 0fef 133d f639 d8bd fb1e 5fbe 77ba 9bbd
00000260: 0bbf 6abc bd6b 283e 9e56 b0be 8209 973e
00000270: b9f0 b73d 4673 4b3d 9283 863f a5bc 103d
00000280: 2235 c8bd 11ac c53c 0b91 c4bd db10 56bb
00000290: 7e97 793d d402 013e c7fd bbbe d9bf d13e
000002a0: 9f5f e4be b32e e3bd a1cd bc3c c51e 693e
000002b0: 0230 ec3d 6956 7abe 622d d13d 44b8 b8bd
000002c0: d479 6c3e c9df 14bc 1185 b6bc da3b acbe
000002d0: 654c 53bd f91a 6b3e 674d b73e ee77 96be
000002e0: 226e e0bd 6f5d 44bd df22 dd3c 3072 4f3d
000002f0: 25df 053c 8d5b 583d 6ce5 293e 2e66 41be
00000300: 0d4e 40be abbf c73d f73c 29bc ed02 4e3e
00000310: f7a9 76bd a477 4c3d 440b 32be 80e3 42bc
00000320: 71b2 c53d dfc3 853e 0773 dc3e f8f6 503e
00000330: 5b29 573d bd09 41be 0699 a33c c33d 98bd
00000340: ad80 073e fca3 623c 7ef8 963d 1322 513c
00000350: 9005 57bd 2116 2fbe d82e 4dbe 3bea 1abe
00000360: c8f4 833d faa4 c0bd b9ad 853e e598 793d
00000370: 63d1 53be 45e5 9fbb 78af b7be b832 ccbc
00000380: 51f3 1c3e 8cea f5be 7d11 a63d c275 913e
00000390: de12 da3d e06d 943e c73b c03d 7de1 dabd
000003a0: 48ef 9d3d 51d3 1cbd b767 663e ef1c 0e3e
000003b0: 736b 6ebd 4c35 75be 0b7f e93d e639 a2bd
000003c0: 1af0 cc3d 6dd2 01be 9b4e a53d be5a eebc
000003d0: b74c 323d 808d 3d3d ee88 15be d3cf 1b3d
000003e0: af51 8bb8 9a59 913d 7045 933e a8d8 ab3e
000003f0: 5d90 1fbe 35d1 85be 308e 623d 8693 32bd

fc2.bias f4 [100]
0.39425826 1.0124735 0.05202755 0.05532781 -0.5991436 -0.2954477 0.102674335 -0.054980434
-0.5245996 0.328197 1.0082942 0.3646817 -0.1504918 -0.3176652 0.18822254 -0.14894953
0.5456535 -1.0822599 -0.31978163 0.20014374 -0.24868411 -1.1507008 0.5197371 -0.74724495
-0.6700805 0.6543052 0.022840394 -0.8980877 0.025976976 0.57791454 -1.116566 -0.7535277
0.82091755 0.21786448 -0.34440106 -0.3772081 0.044695288 -0.48808184 -0.32440236 -0.23498932
0.8220244 -0.22714172 -0.8559575 -0.80918986 -0.36057204 0.48656932 0.17282133 0.6051218
-0.67691046 -0.07073795 0.17284988 -0.4247919 -0.84671384 -0.5612448 0.024649996 0.12042544
0.27457425 0.82079226 -0.37330282 -0.15444875 -1.0671172 -0.6994274 0.224038 -0.28597438
-0.5815241 0.3045751 -0.7686043 0.5054471 -0.8702004 0.51480544 0.18435243 -0.10208265
0.22069073 0.1754637 -0.46980688 -1.3139818 -0.50707513 -0.29205605 -0.52496636 0.3625645
-0.8809455 -0.62843114 0.65905267 0.25117669 -0.06431645 -1.1060783 -0.042066276 0.27846602
-0.7492738 -0.2893717 -0.034905337 -0.078334115 -0.28045833 0.37085503 -0.46161795 -0.38831046
0.2793446 -1.1782393 -0.3087794 0.25137216
00000000: 38dc c93e bb98 813f d71a 553d 6a9f 623d
00000010: 7a61 19bf ec44 97be ec46 d23d 2a33 61bd
00000020: 294c 06bf 7009 a83e c90f 813f 8fb7 ba3e
00000030: 861a 1abe 03a5 a2be 69bd 403e 3a86 18be
00000040: f3af 0b3f 7e87 8abf 6bba a3be 7bf2 4c3e
00000050: 0ca7 7ebe 2a4a 93bf 7e0d 053f 724b 3fbf
00000060: 658a 2bbf 8c80 273f c71b bb3c 13e9 65bf
00000070: abcd d43c 35f2 133f a2eb 8ebf 31e7 40bf
00000080: a727 523f de17 5f3e 5655 b0be 6c21 c1be
00000090: 6812 373d dde5 f9be 1118 a6be 0aa1 70be
000000a0: 3170 523f d797 68be 0820 5bbf 1127 4fbf
000000b0: e69c b8be 9d1f f93e 13f8 303e 43e9 1a3f
000000c0: 014a 2dbf 0fdf 90bd 8fff 303e 537e d9be
000000d0: 3dc2 58bf bdad 0fbf caee c93c 9da1 f63d
000000e0: ff94 8c3e 711f 523f 8c21 bfbe d027 1ebe
000000f0: 4c97 88bf ad0d 33bf 386a 653e 3c6b 92be
00000100: c3de 14bf 44f1 9b3e 40c3 44bf fb64 013f
00000110: 74c5 5ebf 4aca 033f e2c6 3c3e b510 d1bd
00000120: c0fc 613e c2ac 333e 878a f0be 8e30 a8bf
00000130: adcf 01bf 5f88 95be 3264 06bf 0ea2 b93e
00000140: a585 61bf dde0 20bf adb7 283f 3b9a 803e
00000150: 58b8 83bd f993 8dbf b04d 2cbd 1993 8e3e
00000160: 68d0 3fbf 8728 94be e6f8 0ebd a36d a0bd
00000170: 3c98 8fbe b6e0 bd3e 3059 ecbe a1d0 c6be
00000180: 4106 8f3e 8cd0 96bf 5518 9ebe dab3 803e
